…
	genres
sequence holdout for users (-1, 0, 0)
{'raw_data_size': 995154, 'data_size': [995154, 0, 0], 'n_user': 6022, 'n_item': 3043, 'max_seq_len': 50, 'user_features': ['gender', 'age'], 'user_feature_dims': {'gender': 2, 'age': 7}, 'item_features': ['genres'], 'item_feature_dims': {'genres': 18}, 'feedback_type': ['is_click', 'is_like', 'is_star'], 'feedback_size': 3, 'feedback_negative_sample_rate': {'is_click': 5.136864824864332, 'is_like': 1.3583748453666884, 'is_star': 0.2931366510474735}}
Setup candiate item pool
Setup policy:
SlateGFN_TB(
  (userEncoder): BackboneUserEncoder(
    (uIDEmb): Embedding(6023, 16)
    (UFEmb_gender): Linear(in_features=2, out_features=16, bias=True)
    (UFEmb_age): Linear(in_features=7, out_features=16, bias=True)
    (iIDEmb): Embedding(3044, 16)
    (IFEmb_genres): Linear(in_features=18, out_features=16, bias=True)
    (feedbackEncoder): Linear(in_features=3, out_features=32, bias=True)
    (itemEmbNorm): LayerNorm((16,), eps=1e-05, elementwise_affine=True)
    (userEmbNorm): LayerNorm((16,), eps=1e-05, elementwise_affine=True)
    (itemFeatureKernel): Linear(in_features=16, out_features=32, bias=True)
    (userFeatureKernel): Linear(in_features=16, out_features=32, bias=True)
    (encDropout): Dropout(p=0.1, inplace=False)
    (encNorm): LayerNorm((32,), eps=1e-05, elementwise_affine=True)
    (posEmb): Embedding(50, 32)
    (transformer): TransformerEncoder(
      (layers): ModuleList(
        (0-1): 2 x TransformerEncoderLayer(
          (self_attn): MultiheadAttention(
            (out_proj): NonDynamicallyQuantizableLinear(in_features=64, out_features=64, bias=True)
          )
          (linear1): Linear(in_features=64, out_features=64, bias=True)
          (dropout): Dropout(p=0.1, inplace=False)
          (linear2): Linear(in_features=64, out_features=64, bias=True)
          (norm1): LayerNorm((64,), eps=1e-05, elementwise_affine=True)
          (norm2): LayerNorm((64,), eps=1e-05, elementwise_affine=True)
          (dropout1): Dropout(p=0.1, inplace=False)
          (dropout2): Dropout(p=0.1, inplace=False)
        )
      )
    )
    (stateNorm): LayerNorm((32,), eps=1e-05, elementwise_affine=True)
    (finalStateLayer): DNN(
      (layers): Sequential(
        (0): Linear(in_features=96, out_features=128, bias=True)
        (1): ReLU()
        (2): Dropout(p=0.1, inplace=False)
        (3): LayerNorm((128,), eps=1e-05, elementwise_affine=True)
        (4): Linear(in_features=128, out_features=32, bias=True)
      )
    )
    (sigmoid): Sigmoid()
  )
  (bce_loss): BCEWithLogitsLoss()
  (pForwardEncoder): DNN(
    (layers): Sequential(
      (0): Linear(in_features=224, out_features=128, bias=True)
      (1): ReLU()
      (2): Dropout(p=0.1, inplace=False)
      (3): LayerNorm((128,), eps=1e-05, elementwise_affine=True)
      (4): Linear(in_features=128, out_features=32, bias=True)
    )
  )
  (pForwardNorm): LayerNorm((32,), eps=1e-05, elementwise_affine=True)
  (logFlowZero): DNN(
    (layers): Sequential(
      (0): Linear(in_features=32, out_features=128, bias=True)
      (1): ReLU()
      (2): LayerNorm((128,), eps=1e-05, elementwise_affine=True)
      (3): Linear(in_features=128, out_features=1, bias=True)
    )
  )
  (sigmoid): Sigmoid()
)
<model.buffer.SequentialBuffer.SequentialBuffer object at 0x7f61bf6790d0>
Setup agent
<model.agent.BaseOnlineAgent.BaseOnlineAgent object at 0x7f61bf679070>
Namespace(actor_decay=0.0, actor_lr=0.0003, batch_size=128, buffer_random_rate=0, buffer_size=50000, check_episode=20, cuda=0, device='cuda:0', dropout_rate=0.1, el
…
